ml-agents/config/poca/results/ppo/SoccerTwos.onnx (onnx, 215478 bytes, 8 tensors)

discrete_act_size_vector f4 [1, 3]
0	0x40400000	3.0
1	0x40400000	3.0
2	0x40400000	3.0

network_body._body_endoder.seq_layers.0.weight f4 [128, 264]
0	0xbbf6b23a	-0.0075285705
1	0xbda4bc25	-0.08043698
2	0x3e206824	0.15664726
3	0xbd844c46	-0.064598605
4	0xbd40b8cf	-0.047051247
5	0xbc6dd272	-0.014515506
6	0xbde2dae7	-0.110769086
7	0xbd004310	-0.031313956
8	0xbdb0bbbc	-0.086295575
9	0x3d94b805	0.072616614
10	0x3df15be6	0.11785106
11	0xbdb5a63a	-0.08869596
12	0xbd996cc1	-0.07491446
13	0xbd478797	-0.048713293
14	0x3da951ef	0.08267581
15	0xbc853c04	-0.01626397
16	0x3ca82337	0.020524604
17	0x3c58175c	0.013189163
18	0x3c2e5edf	0.010642736
19	0xbd94896d	-0.072527744
20	0x3d9194a9	0.07108433
21	0x3d41f3f5	0.047351796
22	0xbd0e4af7	-0.03473946
23	0xbd9a6b38	-0.075399816
24	0x3daa2af0	0.08308971
25	0x3d2c67e7	0.042091276
26	0xbd67deba	-0.056608893
27	0xbcadf416	-0.021234553
28	0x3cab5c74	0.020918109
29	0xbd840f46	-0.06448226
30	0xbc80fbee	-0.01574513
31	0xbd8ad7fb	-0.06779476
32	0xbde35cde	-0.111016974
33	0xbcbf672f	-0.023364631
34	0xbd67e5fe	-0.056615822
35	0x3d17c65c	0.037054405
36	0xbdd6be9d	-0.10485575
37	0xbd3fc569	-0.046819124
38	0xbca8e39b	-0.020616343
39	0x3d699afa	0.057032563
40	0x3dc194d2	0.09452213
41	0x3db3d62f	0.08781087
42	0xbd98233c	-0.074285954
43	0xbc24d3c1	-0.010060252
44	0xbc9d6404	-0.01921273
45	0x3ce2a60e	0.027667072
46	0x3db29e7c	0.08721635
47	0x3d24cfec	0.040237352
48	0xbbae9043	-0.005327256
49	0x3dbd9fc4	0.092589885
50	0xbd97ce47	-0.07412391
51	0x3d52e870	0.0514912
52	0xbd1e0991	-0.038583342
53	0xbd98c690	-0.07459748
54	0xbd900aba	-0.07033296
55	0xbd945d7b	-0.072443925
56	0x3c21607b	0.009849663
57	0xbac173aa	-0.0014759202
58	0x3c78808e	0.015167369
59	0x3dc3844f	0.0954672
60	0xbcecc8cc	-0.028904341
61	0xbd889c18	-0.066703975
62	0xbcddcdaa	-0.027075607
63	0xbcb7f6be	-0.022456523
64	0xbcac3e50	-0.021025807
65	0xbc62f244	-0.013851706
66	0xbd0de16e	-0.034638815
67	0x3cac728d	0.021050716
68	0xbd3c32eb	-0.045946997
69	0xbdb1bd88	-0.08678728
70	0x3d8e19b2	0.06938495
71	0x3cc99d1a	0.024611045
72	0x3d44409c	0.04791318
73	0xbcf3453b	-0.029696098
74	0x3d01a0ee	0.031647615
75	0xbd319cfc	-0.043362603
76	0xbd876a3a	-0.06612058
77	0x3d4e395c	0.05034767
78	0xbc80f840	-0.015743375
79	0xbbceaa4b	-0.0063069216
80	0x3e250ea4	0.16118866
81	0xbdc5ec9b	-0.096642695
82	0xbc67cca6	-0.014147913
83	0xbddc6bf5	-0.10762779
84	0xbdc3e876	-0.09565823
85	0x3d357e6d	0.044310022
86	0x3da128f7	0.078691415
87	0xbd94923c	-0.072544545
88	0xbd1ffe00	-0.039060593
89	0x3cbc9ad7	0.023023052
90	0x3d55e569	0.052220736
91	0xbd8eac6c	-0.069664806
92	0x3d4b7510	0.049672186
93	0xbd055066	-0.032547377
94	0xbdbe2b8e	-0.09285651
95	0x3cb8f5ea	0.022578198
96	0x3cf6b8bb	0.030117383
97	0x3d8ffbff	0.07030486
98	0xbd230e62	-0.03980864
99	0x3d2e7bfd	0.042598713
100	0x3c8942ba	0.01675545
101	0xbd50473b	-0.05084918
102	0x3dcffb9c	0.101554126
103	0x3cdd4d4a	0.027014393
104	0xbd6dd84d	-0.05806761
105	0xbd4ff0ad	-0.050766636
106	0xbc8a81cf	-0.0169076
107	0xbd9b6749	-0.075880595
108	0xbda220a2	-0.079163805
109	0x3d3f22f8	0.04666421
110	0xbde6f3f8	-0.11277002
111	0x3de20cdd	0.1103761
112	0xbda38c66	-0.07985763
113	0x3c954b52	0.018224392
114	0x3d715efd	0.05892848
115	0x3c6a89ca	0.014315078
116	0xbe13d693	-0.14437322
117	0xbd3fb5db	-0.04680429
118	0xbd0545c0	-0.032537222
119	0x3c6abe07	0.014327533
120	0x3da962fa	0.082708314
121	0x3d7c02eb	0.06152622
122	0x3d2bea2a	0.041971363
123	0xbdbd834c	-0.092535585
124	0x3de082e6	0.10962467
125	0x3c97878b	0.01849725
126	0xbd8269e1	-0.06367851
127	0x3dbb6d57	0.09151714
128	0xbd7ba16a	-0.061433233
129	0x3d9530ca	0.072846964
130	0xbc317169	-0.010830262
131	0xbe2d0b2e	-0.16898796
132	0xbabeab67	-0.0014546931
133	0xbda36998	-0.07979125
134	0xbe305ebe	-0.17223641
135	0x3d679eff	0.056548115
136	0xbc7fe01d	-0.015617398
137	0x3c80b8fb	0.015713206
138	0xbd704479	-0.05865905
139	0x3bee301d	0.007268919
140	0xbdeb027a	-0.11475082
141	0x3a1962ac	0.000585119
142	0xbb54550a	-0.003239932
143	0x3bae45e0	0.0053183883
144	0xbc3c401b	-0.011489893
145	0xbe65b1ed	-0.22431155
146	0x3c92b373	0.017907834
147	0xbd4ef2ef	-0.05052465
148	0x3debf908	0.11522108
149	0x3ca48709	0.020083921
150	0xbd32c4f8	-0.043644875
151	0xbce42aae	-0.027852383
152	0xbd97ea75	-0.07417766
153	0xbd0daeaa	-0.0345904
154	0xbca56ded	-0.020194018
155	0xbdb70a71	-0.089375384
156	0xbdb4a1e7	-0.08819943
157	0x3d0b24f2	0.03397078
158	0xbd718768	-0.058967024
159	0xbd4ce89e	-0.05002653
160	0xbcaaa6ae	-0.020831432
161	0x3dab6674	0.08369151
162	0xbc51de5a	-0.01280936
163	0xbc944518	-0.018099353
164	0xbd7c84b2	-0.061649986
165	0xbdb21301	-0.08695031
166	0x3d846d9a	0.06466217
167	0xbc9ca3a1	-0.019120993
168	0xbd5302d2	-0.05151636
169	0x3d5ec1ea	0.05438415
170	0xbd93aac2	-0.07210304
171	0xbaa5345d	-0.0012604106
172	0x3dc07c29	0.09398682
173	0xbd111c7f	-0.035427567
174	0xbdac835d	-0.08423493
175	0xbdcab643	-0.09898045
176	0x3db4d99c	0.08830568
177	0xbd6eadf9	-0.058271382
178	0x3d187a50	0.03722602
179	0x3d14b2db	0.036303382
180	0x3d07a7a7	0.03311887
181	0x3d42823f	0.047487494
182	0x3d3324d9	0.043736313
183	0xbd214f83	-0.03938247
184	0xbd5f871e	-0.054572217
185	0x3c69e754	0.014276344
186	0x3d3b197c	0.0456786
187	0x3b280358	0.0025636759
188	0xbc68923f	-0.014195024
189	0x3af029e6	0.0018323034
190	0xbc7594a6	-0.014989054
191	0x3dba67b3	0.0910181
192	0x3ca33f93	0.019927775
193	0xbdadd43a	-0.08487745
194	0xbcf7e1c9	-0.03025903
195	0xbd4d1a69	-0.050074015
196	0xbcfe5436	-0.031046014
197	0xbc9707a4	-0.01843626
198	0xbc9bd5cd	-0.019022847
199	0xbb0089a8	-0.00196133
200	0xbd1abcd5	-0.03777774
201	0x3baf9a34	0.0053589586
202	0x3d83bccf	0.06432497
203	0xbd272d07	-0.040814426
204	0x3c0903c4	0.008362714
205	0x3cd4e021	0.02598578
206	0xbb4937da	-0.0030703456
207	0xbde63f3c	-0.1124253
208	0x3cf5d05a	0.030006576
209	0xbd52e7d5	-0.051490624
210	0xbccc194a	-0.024914403
211	0xbd198bcd	-0.03748684
212	0x3c87d6fe	0.016582008
213	0xbc1eb946	-0.009687727
214	0x38d1e1b5	0.00010007938
215	0x3c2035c3	0.009778443
216	0xbd8845d4	-0.06653944
217	0xbd379a0c	-0.044824645
218	0x3dd7c189	0.10534961
219	0x3aa40e77	0.0012516518
220	0xbc80f364	-0.015741058
221	0x3d373a8b	0.044733565
222	0xbc2d1e83	-0.010566357
223	0x3e0f8774	0.14016515
224	0xbd3bbef1	-0.045836393
225	0xbb8a69d4	-0.0042240415
226	0xbd92eb27	-0.07173758
227	0x3e089ff3	0.13342266
228	0x3d508a8c	0.05091338
229	0x3da8b574	0.082377344
230	0xbd08b733	-0.033377837
231	0x3b754007	0.0037422196
232	0x3d16b07a	0.036789395
233	0x3dd5160f	0.10404598
234	0xbd2f045f	-0.042728778
235	0x3b151b54	0.0022751885
236	0xbdb6b2d6	-0.08920829
237	0x3de70412	0.11280073
238	0xbd8cde90	-0.06878388
239	0x3cfbfb97	0.030759616
240	0xbc2aa701	-0.010415793
241	0xbdb0c9ff	-0.08632278
242	0xbc1e75e5	-0.009671663
243	0x3db5f142	0.08883907
244	0x3d0324b0	0.03201741
245	0xbd704a71	-0.058664743
246	0x3d4a7483	0.04942752
247	0xbaf83483	-0.0018936548
248	0x3d740232	0.059572406
249	0x3d18aa82	0.037271984
250	0x3d910e0b	0.070827566
251	0x3d4dd50d	0.05025201
252	0x3cfa2469	0.03053494
253	0xbcd374c6	-0.025812518
254	0x3c9f0f83	0.019416576
255	0xbd23bab8	-0.03997299

network_body._body_endoder.seq_layers.0.bias f4 [128]
0	0x00000000	0.0
1	0x00000000	0.0
2	0x00000000	0.0
3	0x00000000	0.0
4	0x00000000	0.0
5	0x00000000	0.0
6	0x00000000	0.0
7	0x00000000	0.0
8	0x00000000	0.0
9	0x00000000	0.0
10	0x00000000	0.0
11	0x00000000	0.0
12	0x00000000	0.0
13	0x00000000	0.0
14	0x00000000	0.0
15	0x00000000	0.0
16	0x00000000	0.0
17	0x00000000	0.0
18	0x00000000	0.0
19	0x00000000	0.0
20	0x00000000	0.0
21	0x00000000	0.0
22	0x00000000	0.0
23	0x00000000	0.0
24	0x00000000	0.0
25	0x00000000	0.0
26	0x00000000	0.0
27	0x00000000	0.0
28	0x00000000	0.0
29	0x00000000	0.0
30	0x00000000	0.0
31	0x00000000	0.0
32	0x00000000	0.0
33	0x00000000	0.0
34	0x00000000	0.0
35	0x00000000	0.0
36	0x00000000	0.0
37	0x00000000	0.0
38	0x00000000	0.0
39	0x00000000	0.0
40	0x00000000	0.0
41	0x00000000	0.0
42	0x00000000	0.0
43	0x00000000	0.0
44	0x00000000	0.0
45	0x00000000	0.0
46	0x00000000	0.0
47	0x00000000	0.0
48	0x00000000	0.0
49	0x00000000	0.0
50	0x00000000	0.0
51	0x00000000	0.0
52	0x00000000	0.0
53	0x00000000	0.0
54	0x00000000	0.0
55	0x00000000	0.0
56	0x00000000	0.0
57	0x00000000	0.0
58	0x00000000	0.0
59	0x00000000	0.0
60	0x00000000	0.0
61	0x00000000	0.0
62	0x00000000	0.0
63	0x00000000	0.0
64	0x00000000	0.0
65	0x00000000	0.0
66	0x00000000	0.0
67	0x00000000	0.0
68	0x00000000	0.0
69	0x00000000	0.0
70	0x00000000	0.0
71	0x00000000	0.0
72	0x00000000	0.0
73	0x00000000	0.0
74	0x00000000	0.0
75	0x00000000	0.0
76	0x00000000	0.0
77	0x00000000	0.0
78	0x00000000	0.0
79	0x00000000	0.0
80	0x00000000	0.0
81	0x00000000	0.0
82	0x00000000	0.0
83	0x00000000	0.0
84	0x00000000	0.0
85	0x00000000	0.0
86	0x00000000	0.0
87	0x00000000	0.0
88	0x00000000	0.0
89	0x00000000	0.0
90	0x00000000	0.0
91	0x00000000	0.0
92	0x00000000	0.0
93	0x00000000	0.0
94	0x00000000	0.0
95	0x00000000	0.0
96	0x00000000	0.0
97	0x00000000	0.0
98	0x00000000	0.0
99	0x00000000	0.0
100	0x00000000	0.0
101	0x00000000	0.0
102	0x00000000	0.0
103	0x00000000	0.0
104	0x00000000	0.0
105	0x00000000	0.0
106	0x00000000	0.0
107	0x00000000	0.0
108	0x00000000	0.0
109	0x00000000	0.0
110	0x00000000	0.0
111	0x00000000	0.0
112	0x00000000	0.0
113	0x00000000	0.0
114	0x00000000	0.0
115	0x00000000	0.0
116	0x00000000	0.0
117	0x00000000	0.0
118	0x00000000	0.0
119	0x00000000	0.0
120	0x00000000	0.0
121	0x00000000	0.0
122	0x00000000	0.0
123	0x00000000	0.0
124	0x00000000	0.0
125	0x00000000	0.0
126	0x00000000	0.0
127	0x00000000	0.0

network_body._body_endoder.seq_layers.2.weight f4 [128, 128]
0	0xbdbacd03	-0.09121134
1	0xbd904bc0	-0.07045698
2	0xbdd9d3df	-0.10636114
3	0xbd39463a	-0.04523299
4	0xbd89fb00	-0.067373276
5	0xbd4b9a99	-0.049707983
6	0x3e26ca5c	0.16288131
7	0xbdecfafb	-0.11571308
8	0x3dbda27d	0.09259508
9	0xbceae0e8	-0.028671697
10	0xbc8e738c	-0.017389081
11	0x3b64a534	0.0034888508
12	0xbd33d7f1	-0.04390711
13	0xbd7c9c19	-0.061672304
14	0xbcf2c396	-0.029634278
15	0x3e197c26	0.14988765
16	0xbd8ae0b8	-0.06781143
17	0xbda58bb0	-0.08083284
18	0x3d9b50f8	0.07583803
19	0x3e147149	0.1449634
20	0xbe180b2e	-0.14848015
21	0xbdd2bc5b	-0.10289832
22	0xbdbca947	-0.092119746
23	0xbe56f5a4	-0.20992142
24	0xbcb1cc27	-0.021703793
25	0xbd2ddd87	-0.042447593
26	0x3e0e936c	0.13923424
27	0xbd9e60b8	-0.077332914
28	0xbd164dc4	-0.036695257
29	0xbd66dda0	-0.0563637
30	0xbd6b5756	-0.057456337
31	0xbd274b21	-0.040843133
32	0xbe215f48	-0.15759003
33	0x3bf128c5	0.0073595964
34	0xbd2a9642	-0.041647203
35	0xbe042043	-0.12902932
36	0x3c926e8a	0.017874975
37	0xbb0f4dc7	-0.0021866427
38	0x3da4183c	0.08012435
39	0xbd78cf44	-0.06074454
40	0x3cc80bde	0.024419721
41	0xba4f7b2c	-0.00079147774
42	0x3e036506	0.12831506
43	0x3dcf7b15	0.10130898
44	0x3c87af02	0.016562942
45	0xbb1a8920	-0.0023580268
46	0xbd279bd6	-0.0409201
47	0x3c85a12d	0.016312206
48	0x3d367ded	0.044553686
49	0xbe10bb83	-0.1413403
50	0xbdea4396	-0.11438672
51	0xbda2f93f	-0.07957696
52	0xbd306b48	-0.04307106
53	0x3d9d34c6	0.07676081
54	0x3cf38950	0.029728562
55	0x3c8bb980	0.017056227
56	0xbd7eca8a	-0.062204875
57	0xbd6af33d	-0.057360876
58	0x3ba60b29	0.0050672484
59	0x3dad542f	0.08463322
60	0x3d8d2fe2	0.068938985
61	0x3cd53cde	0.02603
62	0x3d5d682a	0.054054417
63	0xbc44c9fb	-0.0120110465
64	0xbd856f9e	-0.0651543
65	0x3c009860	0.007848829
66	0xbdb1433d	-0.08655403
67	0x3d695cc7	0.056973245
68	0x3d58431e	0.052798383
69	0xbdfd733c	-0.12375495
70	0x3c5a9d1a	0.01334312
71	0xbc09eacb	-0.008417795
72	0xbd2f4b48	-0.042796403
73	0x3c0ffe13	0.008788603
74	0xbdaf6157	-0.08563488
75	0x3d26a6c9	0.040686402
76	0xbce97c73	-0.028501725
77	0x3d42aef9	0.04753015
78	0xbd93c2c2	-0.072148815
79	0x3d9aa9ed	0.07551942
80	0xbdd1b838	-0.10240215
81	0x3d30416b	0.043031137
82	0xbce9a1b6	-0.028519493
83	0x3d1139e6	0.035455607
84	0x3d1e417e	0.038636677
85	0xbdc479dc	-0.09593555
86	0x3d867852	0.06565918
87	0xbdc2d955	-0.09514109
88	0xbc66efcf	-0.014095261
89	0xbd243122	-0.04008592
90	0xbcad308a	-0.02114131
91	0xbd0a81c8	-0.033815175
92	0xbe03f29b	-0.12885515
93	0xbc69ce84	-0.014270429
94	0xbcfdba03	-0.030972486
95	0xbce96968	-0.028492644
96	0xbe3a4438	-0.18190086
97	0xbd65b7f9	-0.056083653
98	0x3d1946f1	0.03742117
99	0xbdc6d8c8	-0.097093165
100	0x3e70f663	0.23531489
101	0x3d9fda2a	0.07805283
102	0xbd8df53a	-0.06931539
103	0xbc8e5bf4	-0.017377831
104	0xbc2d2f9b	-0.010570432
105	0x3d07c7cc	0.033149526
106	0x3d30dfeb	0.043182295
107	0x3dd529b6	0.10408346
108	0xbe1eabdf	-0.15495251
109	0x3d1b8805	0.037971515
110	0xbd583fa7	-0.05279508
111	0xbd613afa	-0.054987885
112	0xbd2f4a31	-0.042795364
113	0x3cfef946	0.031124722
114	0x3e320d73	0.17387943
115	0x3dbb9485	0.09159187
116	0x3e3e91ca	0.18610302
117	0x3bdf8e3c	0.0068223756
118	0x3d750c1f	0.059826013
119	0xbdc1fea2	-0.094723955
120	0x3a95f8f4	0.0011441992
121	0xbc72b458	-0.014813505
122	0xbd8a6c9a	-0.06758995
123	0xbdb61862	-0.088913694
124	0x3df6154c	0.12015781
125	0xbc3013af	-0.01074688
126	0xbda7786e	-0.08177267
127	0x3d52ea5c	0.051493034
128	0x3d796873	0.060890626
129	0xbc647681	-0.013944269
130	0x3d7b64c0	0.06137538
131	0x3e580554	0.21095783
132	0xbb86595e	-0.004100009
133	0x3d32792f	0.0435726
134	0x3dcb650d	0.09931383
135	0x3d753fdf	0.059875365
136	0xbddcb22c	-0.10776171
137	0x3af51fda	0.0018701509
138	0xbd923a49	-0.07140023
139	0x3dc8ce1c	0.09804937
140	0xbe40418f	-0.18775009
141	0xbd7243e2	-0.05914677
142	0xbcfb3974	-0.030667044
143	0x3e1ff7ca	0.15621868
144	0xbe16b8eb	-0.14718978
145	0xbd930bc0	-0.071799755
146	0xbdaf65a8	-0.08564311
147	0x3d59edc6	0.053205274
148	0x3d3ae3ec	0.04562752
149	0xbd2bab32	-0.04191131
150	0xbc398524	-0.011323247
151	0x3d7802d4	0.060549572
152	0x3d2997bc	0.04140447
153	0x3dd3defc	0.10345265
154	0x3c44df85	0.012016182
155	0xbdaf79b0	-0.08568132
156	0x3d638e01	0.055555347
157	0x3b84ef08	0.004056815
158	0x3e19322d	0.14960547
159	0x3dc2b6c3	0.09507515
160	0xbdc8abff	-0.09798431
161	0xbc491b65	-0.012274598
162	0xbdcc20dc	-0.09967205
163	0xbd4d45f4	-0.05011554
164	0x3d30054f	0.042973813
165	0x3c5f6071	0.013633833
166	0xbd24ded9	-0.040251587
167	0xbc198afa	-0.0093715135
168	0xbd167d8f	-0.036740836
169	0x3d866a26	0.06563215
170	0xbdb72b07	-0.08943754
171	0x3d04e55b	0.032445293
172	0xbe09b5eb	-0.13448302
173	0x3c357948	0.011076279
174	0xbbfe16fd	-0.0077542053
175	0xbd149902	-0.036278732
176	0xbd3a4596	-0.04547652
177	0x3da5c809	0.08094794
178	0xbc9f6b46	-0.019460332
179	0xbe1983e6	-0.14991722
180	0xb9e8c998	-0.00044400687
181	0x3d1dd696	0.038534723
182	0x3dcf916d	0.1013516
183	0x3e3073d2	0.17231682
184	0x3df65f28	0.12029868
185	0xbd17b5b2	-0.037038513
186	0xbd8342cb	-0.06409224
187	0x3e1ee6f8	0.15517795
188	0xbe1ac0cb	-0.15112607
189	0xbdf9cd10	-0.12197316
190	0xbdc27681	-0.09495259
191	0xbc74fd1a	-0.014952922
192	0x3d522672	0.051306196
193	0x3d73925e	0.05946576
194	0xbde444a8	-0.11145908
195	0xbdbea188	-0.093081534
196	0xbdfac8be	-0.1224532
197	0x3cafced1	0.021460922
198	0x3da9eb80	0.08296871
199	0xbe54935a	-0.20759335
200	0x3de4a4fd	0.111642815
201	0x3c9daceb	0.019247493
202	0x3e195623	0.14974265
203	0xbe6b93bd	-0.23005576
204	0xbe0c6477	-0.137102
205	0x3bd72acb	0.0065663806
206	0x3dafab97	0.0857765
207	0xbdf3ff4f	-0.119139306
208	0x3ba5b507	0.0050569805
209	0xbe2abb3c	-0.16672987
210	0xbde667a3	-0.11250236
211	0x3e524def	0.20537542
212	0xbddf031e	-0.108892664
213	0x3dbc7cb9	0.092034765
214	0x3d2b7527	0.041859772
215	0xbd941c2a	-0.07231934
216	0xbcb76b9e	-0.022390183
217	0xbdbbcbae	-0.09169708
218	0x3ca30f20	0.019904673
219	0xbd4be6aa	-0.049780525
220	0x3db0b663	0.086285375
221	0xbdb558e7	-0.088548474
222	0x3dfb398e	0.12266837
223	0x3ce729d6	0.028218191
224	0x3d2b1f5c	0.041777954
225	0x3dc2b6c5	0.09507517
226	0x3cfd42a3	0.030915564
227	0xbe4e8b20	-0.2017026
228	0xbd5720b5	-0.052521426
229	0x3dd02148	0.10162598
230	0x3de4a656	0.111645386
231	0x3dd1d91f	0.10246491
232	0x3c1e0f0f	0.009647145
233	0xbcc0f671	-0.023555012
234	0x3db7a564	0.08967093
235	0xbcb2a67b	-0.0218079
236	0xbdbe5850	-0.09294188
237	0x3be0e565	0.0068632835
238	0x3c2f4528	0.0106976405
239	0x3de60e11	0.11233152
240	0x3e19fb96	0.15037379
241	0xbd0761eb	-0.033052366
242	0x3d63a21f	0.055574533
243	0xbca93380	-0.02065444
244	0xbc3a25be	-0.0113615375
245	0x3d954ad9	0.07289667
246	0xbda51e8d	-0.08062468
247	0xbcdba439	-0.026811706
248	0x3dc62a61	0.09676052
249	0xbd39d3a5	-0.045367856
250	0xbdacd2fe	-0.08438681
251	0xbe105e29	-0.14098419
252	0xbd9ef6d8	-0.077619255
253	0xbd99fe0b	-0.07519158
254	0x3d1f80ba	0.038941123
255	0xbcb5ac7d	-0.022176975

action_model._discrete_distribution.branches.0.weight f4 [3, 128]
0	0x3ab5f745	0.0013882896
1	0x3b1b8bf2	0.0023734537
2	0xbc92423b	-0.017853847
3	0x3ba28dab	0.004960736
4	0x38a677a0	7.937779e-05
5	0xbbf7ebeb	-0.0075659654
6	0x3bc1f492	0.0059190476
7	0x3a8f81c6	0.001094871
8	0x3accf8b8	0.0015638089
9	0x3c32db17	0.010916493
10	0x3bb268b7	0.005444612
11	0x3b147c4f	0.0022657102
12	0xbc0e8d89	-0.008700737
13	0xbc584983	-0.01320112
14	0xbb92dcd0	-0.0044818893
15	0x3ad41bbf	0.0016182585
16	0xbb7cf542	-0.0038598333
17	0x3beecb43	0.0072874143
18	0x3c302f44	0.0107534565
19	0x36c108b1	5.75286e-06
20	0x3c918ad0	0.017766386
21	0xbbb8bba7	-0.0056376043
22	0xbc521500	-0.01282239
23	0xbaf72935	-0.0018856885
24	0x3c1569e3	0.009119484
25	0xbbcce003	-0.00625229
26	0x394e689b	0.0001968466
27	0xba8e6efc	-0.0010866816
28	0x3bfd83a0	0.007736638
29	0x3b715eed	0.0036830262
30	0x3c4ea8eb	0.012613515
31	0x3c02352d	0.007947248
32	0xbc398d03	-0.011325124
33	0xbbbb2f50	-0.005712427
34	0x39c57111	0.0003765901
35	0xbb945f73	-0.00452798
36	0x3c1fd1ab	0.009754579
37	0x3cbc0feb	0.022956809
38	0xbabd7c9d	-0.0014456693
39	0xbc6774c5	-0.014126961
40	0xbbbd7f09	-0.005782966
41	0xbb44dd14	-0.0030039
42	0x3b91721b	0.0044386513
43	0x3c2bff74	0.0104979165
44	0xbb43e895	-0.0029893268
45	0xbb59bc0d	-0.003322366
46	0xbbbd8ad6	-0.005784373
47	0xbc45f831	-0.012083099
48	0x3af35da8	0.001856734
49	0xbba829d8	-0.0051319413
50	0xbc809362	-0.015695278
51	0x3a20cd35	0.0006134094
52	0x3c49e0c1	0.012321652
53	0xbaba7d5b	-0.0014228033
54	0xba95263e	-0.0011379195
55	0x3c266f7e	0.010158418
56	0xbc786e3f	-0.0151630035
57	0x3b96a88c	0.004597729
58	0xbae089b8	-0.0017130887
59	0x3c1a975e	0.009435503
60	0x3c2e0cb0	0.010623142
61	0x3bd03508	0.006353978
62	0xbb765ef8	-0.0037593227
63	0xbb6dfe3b	-0.0036314863
64	0x3be2db3b	0.006923107
65	0xbb68aaba	-0.0035502152
66	0xbb3592b4	-0.002770585
67	0x3b15707a	0.0022802637
68	0xb99485dc	-0.00028328493
69	0x3cb07e62	0.021544639
70	0xbbea15bf	-0.0071437056
71	0xbc3c7eed	-0.011504871
72	0xbc5229a5	-0.012827312
73	0x3b65c46b	0.0035059701
74	0x3b591550	0.0033124276
75	0x39bcaaf3	0.0003598552
76	0xbc1302a7	-0.0089728
77	0x3c6ba487	0.014382488
78	0xbbd6a17a	-0.006550011
79	0x3bdeb3f8	0.0067963563
80	0xbb992e66	-0.0046747206
81	0xbc4c1fa7	-0.012458718
82	0x3b193cac	0.002338211
83	0x3b432fe2	0.002978318
84	0x3a324300	0.0006800145
85	0x3c34ee42	0.011043133
86	0xbb5c1b0d	-0.003358546
87	0x3cc4501b	0.023963979
88	0xbbb76d3a	-0.0055977376
89	0x3b634878	0.0034680646
90	0x3bfa3c93	0.0076366155
91	0xb90507dc	-0.00012686796
92	0xbc3d6dfb	-0.011561866
93	0xbbf1272f	-0.0073594074
94	0xbb65a11b	-0.0035038653
95	0x3c0322e9	0.008003929
96	0xbb141988	-0.0022598226
97	0xbbd9734d	-0.0066360594
98	0x3c408eab	0.011752765
99	0xbc657317	-0.01400449
100	0xbcd1cfc5	-0.025611768
101	0xbaccdfbd	-0.0015630644
102	0x3bbe77c8	0.005812619
103	0xbb3956c1	-0.002828047
104	0x3b772233	0.0037709593
105	0x3a0ca600	0.0005365312
106	0x3b1cc733	0.0023922443
107	0xbb5e1cf2	-0.0033891764
108	0xbcda5fd7	-0.026657028
109	0x3c803e2e	0.01565465
110	0xbc3668d7	-0.011133394
111	0xbb240b60	-0.0025031194
112	0xba45b6cf	-0.0007542194
113	0xbac47991	-0.0014989843
114	0x3c04c810	0.008104339
115	0x3c65c200	0.014023304
116	0x3b848f54	0.0040454064
117	0x3b21da03	0.0024696596
118	0x3c1a258a	0.009408364
119	0xbcbd216c	-0.023087226
120	0xbc453552	-0.012036638
121	0x3c60764d	0.01370008
122	0xbc8753c7	-0.01651944
123	0xbb84fc0b	-0.004058366
124	0x3bb90397	0.00564618
125	0x3c530b40	0.0128811
126	0xbc1fd5b6	-0.0097555425
127	0x3bbc46f2	0.005745762
128	0xbc3aea32	-0.011408376
129	0xbc395622	-0.01131204
130	0xbbc50d29	-0.0060135317
131	0x3c12e24b	0.008965085
132	0xbc328d3b	-0.01089793
133	0x3a9de6e4	0.001204696
134	0x3b866842	0.004101784
135	0xbb8c495f	-0.0042812075
136	0x3c296c33	0.010340738
137	0xbafc9dbf	-0.0019273086
138	0x3c13576f	0.008993014
139	0x3988b4f9	0.00026074777
140	0x3c04840b	0.008088122
141	0xbc81ac40	-0.015829206
142	0x3c3e0853	0.011598664
143	0x3c2dde50	0.010612085
144	0x3c07c1ef	0.008285983
145	0xbbb0d356	-0.005396287
146	0xbbdf841f	-0.00682117
147	0x3c4b42b8	0.012406044
148	0x3c3fe666	0.011712646
149	0x3b8889d3	0.0041668206
150	0xbc4a2ac9	-0.012339302
151	0xbc84619b	-0.016159823
152	0x3b8164b2	0.0039487714
153	0x3b13b4bd	0.0022538148
154	0xbb2b13d9	-0.002610436
155	0x3bec9bbd	0.007220714
156	0xbc20ad01	-0.009806872
157	0xbc1c7e27	-0.009551561
158	0xbc270e46	-0.010196274
159	0x3b324dcd	0.0027207017
160	0xbb9ffa57	-0.0048821378
161	0x3c0d6a0b	0.00863124
162	0x3c048484	0.008088235
163	0x3bc74a04	0.0060818214
164	0x3c9e0287	0.019288315
165	0x3c63b4dd	0.013898102
166	0x3c0f8f8c	0.008762252
167	0xbb2d65a8	-0.0026458297
168	0xbb0ec74b	-0.0021786268
169	0xbb81a5af	-0.0039565186
170	0x39f4cfe7	0.00046694206
171	0x3c7b324a	0.015331814
172	0x3c04d393	0.008107084
173	0xbb41717a	-0.00295171
174	0x3b299a21	0.0025879222
175	0xbb5ca1db	-0.003366581
176	0xbc2085d7	-0.009797535
177	0x3bc87900	0.00611794
178	0xbbcce5e8	-0.006252993
179	0xbc0aac45	-0.008463924
180	0xbc875b3c	-0.016522996
181	0x3caa04df	0.020754276
182	0x3c46512e	0.012104316
183	0x3c9b4a04	0.018956192
184	0x3c151533	0.009099293
185	0xbc3a16e7	-0.011357999
186	0x3c407b94	0.011748213
187	0x3ad3b0e3	0.0016150739
188	0x3bfd974f	0.0077389847
189	0xba2e6769	-0.00066529826
190	0xbb9b6aa6	-0.004742938
191	0x3abed517	0.0014559355
192	0x3bc125d6	0.005894403
193	0x3c8663d2	0.01640502
194	0xba935b75	-0.0011242466
195	0x3c4c16ec	0.012456637
196	0x3bbdc6bf	0.0057915146
197	0x3ba3b86d	0.0049963505
198	0x3b7cada0	0.0038555637
199	0xbbe6e18b	-0.00704593
200	0x3b54603b	0.003240599
201	0xbc2258d7	-0.009908876
202	0x3c387b71	0.0112598995
203	0x3b99d09f	0.004694059
204	0x3baf502f	0.005350135
205	0x3c2ecd4a	0.010669062
206	0xbbc30439	-0.005951431
207	0xba5e2af5	-0.0008475029
208	0xbbe2571b	-0.0069073564
209	0x3bc27527	0.005934376
210	0x3c1dfeb6	0.009643247
211	0x3b2c26ae	0.0026268172
212	0x3be1c51f	0.0068899537
213	0x3c352c61	0.011057944
214	0xba860fde	-0.0010228117
215	0xbc133907	-0.008985764
216	0xbab8262a	-0.001404946
217	0x3bd39dd8	0.0064580254
218	0xbb8f844a	-0.0043797838
219	0xbbeb6303	-0.007183434
220	0x3c118c5a	0.00888356
221	0xbac607a2	-0.0015108476
222	0x3a895e8d	0.0010480449
223	0xbba83ac7	-0.00513396
224	0xbc99cefb	-0.018775454
225	0xbb8daa86	-0.0043233065
226	0x3c68e85d	0.014215556
227	0xbb45806f	-0.0030136367
228	0xbb9cbcd0	-0.0047832504
229	0x3c4c4f93	0.012470144
230	0x3ad7ff52	0.001647929
231	0xba8adf73	-0.0010595158
232	0xbc8dc9f3	-0.017308211
233	0x3c4c8b2b	0.012484352
234	0x3c24f072	0.010067092
235	0x3ba7bfc2	0.005119295
236	0x3bab4672	0.0052269036
237	0xbb6ec667	-0.0036434175
238	0x3b683972	0.003543463
239	0xbbbc36aa	-0.005743821
240	0x3b6b9908	0.0035949368
241	0xbc12c81d	-0.008958844
242	0x3ac816ab	0.0015265545
243	0xbc3c85d5	-0.011506517
244	0xbb46c5a5	-0.0030330208
245	0x3c81310e	0.015770461
246	0x3bead517	0.0071665156
247	0xbaa93633	-0.0012909829
248	0x3b9af5f3	0.0047290265
249	0x3a87bd5e	0.0010356118
250	0x3c535017	0.012897513
251	0x3c8adc50	0.016950756
252	0xbb97323a	-0.004614142
253	0x3b80f991	0.0039360006
254	0xbcf18145	-0.029480586
255	0xbc433100	-0.011913538

action_model._discrete_distribution.branches.0.bias f4 [3]
0	0x00000000	0.0
1	0x00000000	0.0
2	0x00000000	0.0

action_model._discrete_distribution.branches.1.weight f4 [3, 128]
0	0xbc0b46d4	-0.008500773
1	0x3ba77647	0.0051105353
2	0x3c8ef7f3	0.017452216
3	0xbbd05110	-0.0063573197
4	0xbbb5ab00	-0.0055440664
5	0xbb711faf	-0.0036792567
6	0x3b66dae2	0.003522568
7	0xba66515b	-0.00087859266
8	0x3a75581b	0.0009359137
9	0x3c2c5f4d	0.010520768
10	0x3be749cf	0.007058359
11	0xbbeb9763	-0.0071896776
12	0xbacbca63	-0.0015547987
13	0x3bd9828b	0.0066378764
14	0xbc130434	-0.00897317
15	0xbc178a77	-0.009249321
16	0xbb044d98	-0.002018785
17	0xbc5c14ef	-0.013432725
18	0x3bc11573	0.0058924495
19	0xbc816c73	-0.015798783
20	0x3c92df52	0.017928753
21	0x3b28ccfb	0.0025756944
22	0x3b6760ed	0.0035305575
23	0x37f9b53d	2.9767509e-05
24	0xbc28389b	-0.010267402
25	0x3c686f33	0.014186668
26	0x3c0672fb	0.008206124
27	0xbc207718	-0.009794019
28	0x3c986aa3	0.018605536
29	0x3ae5fdc5	0.0017546943
30	0xbc181e70	-0.009284601
31	0x3bc7cd86	0.0060974983
32	0xbc01460d	-0.007890237
33	0x3b2bda9f	0.0026222838
34	0x3c54bf2f	0.012985035
35	0x3b7d6de7	0.0038670243
36	0x3bc15459	0.0058999476
37	0xba8ab2aa	-0.001058181
38	0xbbfa0f35	-0.0076312074
39	0xbc3b7d69	-0.011443474
40	0x3aeb5020	0.0017952956
41	0xbbe019ab	-0.0068389974
42	0xbc72ce5a	-0.014819706
43	0xbc8b449f	-0.017000495
44	0x3ca0f6af	0.019648878
45	0x3c617ee3	0.013763162
46	0xbbc05ec0	-0.00587067
47	0x3c6b48b7	0.014360598
48	0xbc80f376	-0.015741091
49	0x3c4c40b7	0.012466601
50	0x3c88bc27	0.01669128
51	0x3c20421c	0.009781387
52	0x3c38b640	0.011273921
53	0x3a81a433	0.0009890854
54	0x3b82d08f	0.0039921473
55	0xbab76679	-0.0013992331
56	0xba32d779	-0.0006822269
57	0xbb300b4f	-0.002686221
58	0xba6edf4b	-0.0009112253
59	0x3bba9fbf	0.0056953127
60	0x3bc33caf	0.005958162
61	0xbae72545	-0.0017635009
62	0x3a930718	0.0011217324
63	0xbc496022	-0.012290986
64	0x3b0bad93	0.0021313175
65	0x398c959d	0.0002681435
66	0xbb9a42b3	-0.004707658
67	0xbc49a2cd	-0.012306881
68	0xbc40ad61	-0.011760087
69	0x3c1c3908	0.009535082
70	0xbc683210	-0.014172092
71	0xbc0d7af0	-0.008635268
72	0x3a6e7e28	0.0009097778
73	0x3a903cab	0.0011004409
74	0xba6cdf25	-0.00090359367
75	0xbbc9a3ed	-0.0061535747
76	0xbc93a363	-0.018022245
77	0x3b89033f	0.004181295
78	0x3bbe9967	0.005816627
79	0x3bcc77c2	0.006239862
80	0x3a9a6264	0.001177859
81	0x3a7334c7	0.0009277579
82	0xbb55acdb	-0.003260425
83	0xbbbabf32	-0.005699062
84	0xbc1e6cb1	-0.009669469
85	0xbbebb337	-0.007192995
86	0xbc85c43e	-0.016328927
87	0x3c941b4e	0.018079426
88	0xbbfac1f0	-0.0076525137
89	0xbabaf3c3	-0.001426332
90	0x3b246f5e	0.0025090794
91	0x3a0b89a6	0.00053229404
92	0x3c4ee29a	0.012627268
93	0x3ba5ac97	0.0050559747
94	0x3bf79abb	0.007556287
95	0x3c2910c8	0.010318942
96	0xbc336a93	-0.010950702
97	0x3bdb24b0	0.006687723
98	0x3ae2f4a8	0.0017315345
99	0xbbdf6d1a	-0.006818426
100	0xbb479e20	-0.003045924
101	0x3b2c5de0	0.002630107
102	0x3bf56935	0.0074893483
103	0x3c3173e3	0.010830852
104	0x3ada3108	0.0016646693
105	0x3be068ef	0.0068484466
106	0xbc0ece8a	-0.008716235
107	0x3c5c6aa7	0.013453162
108	0xbb78a96b	-0.0037942778
109	0xbbbf749b	-0.005842758
110	0x3b54ab1a	0.0032450617
111	0x3beb03a3	0.0071720644
112	0x3c787122	0.015163692
113	0xbae4c45d	-0.001745354
114	0x3c15170d	0.009099734
115	0x3b852e6a	0.004064371
116	0xbc032aa3	-0.008005771
117	0x3c00f6a7	0.0078713065
118	0xbc1181d7	-0.008881054
119	0xba13e450	-0.0005641626
120	0x3bc97d74	0.0061489884
121	0x3c010346	0.007874316
122	0xbc11e710	-0.008905187
123	0x3a873b4c	0.0010317354
124	0x3c6682a8	0.014069237
125	0x3c664dc7	0.0140566295
126	0x3ac70fc3	0.0015187192
127	0xba40bb45	-0.0007352124
128	0x3b9dfaac	0.004821142
129	0xbb5e4e5f	-0.0033921225
130	0xba80467e	-0.0009786633
131	0x3bc13ba3	0.005897002
132	0x3bcfa9c5	0.006337377
133	0xbc74a7a2	-0.014932545
134	0x3b4541b9	0.0030098988
135	0xbc1c521f	-0.009541064
136	0xbb12ace2	-0.0022380878
137	0x3b0d00cb	0.0021515365
138	0x3a7543bb	0.0009356101
139	0xbc9c14c7	-0.019052876
140	0xbb833f03	-0.0040053143
141	0xbaa4da3e	-0.0012577248
142	0xbc256b2b	-0.010096352
143	0x3c5b7533	0.013394642
144	0xb95858d5	-0.00020632458
145	0xbab83cb0	-0.0014056172
146	0x38bbfba5	8.963727e-05
147	0xb9af45cb	-0.000334306
148	0xbc81d361	-0.015847864
149	0xbc80e42f	-0.015733806
150	0xbbfd3887	-0.007727686
151	0xbbb8d6f3	-0.0056408583
152	0x3c14f666	0.009091949
153	0x3bb636b5	0.005560721
154	0xbc4dbf77	-0.012557856
155	0xbc63089b	-0.013857032
156	0xbbcf8420	-0.006332889
157	0xbc8180a2	-0.015808407
158	0x3b3b864b	0.002861398
159	0xbb3fa8dd	-0.0029244937
160	0x3bbeb05b	0.005819363
161	0x3c10a480	0.008828282
162	0x3c99fe05	0.018797884
163	0xbc5906c5	-0.013246243
164	0x3c196045	0.009361331
165	0xba7d939b	-0.0009673179
166	0x3b81aec8	0.003957603
167	0xbc37ba24	-0.011213813
168	0xbc231c48	-0.009955473
169	0x3bc65d8b	0.0060536317
170	0xbc34c0c4	-0.011032287
171	0x3beb3063	0.007177399
172	0x3c3c010e	0.011474861
173	0xbc3d7374	-0.011563171
174	0x3acb82f5	0.0015526699
175	0x3c0fc9b9	0.008776122
176	0xbbc2d152	-0.005945363
177	0x3ba083a1	0.004898504
178	0xbcccaa44	-0.024983533
179	0x3a5b7d87	0.0008372892
180	0xbb281851	-0.002564926
181	0x3b7c4df7	0.003849862
182	0xbbd8f430	-0.0066209063
183	0x3a2eccef	0.0006668111
184	0xbc4c1dfa	-0.012458319
185	0xbc91ada9	-0.017783003
186	0x3c63eeb5	0.013911893
187	0xbbd51a9f	-0.0065034176
188	0xbc0c9b04	-0.0085818805
189	0x3c2e74cb	0.010647963
190	0x3ab2d59c	0.0013643983
191	0xba89e970	-0.001052184
192	0x3afbeced	0.001922039
193	0xbba54578	-0.0050436817
194	0xba05e68c	-0.00051079015
195	0xbbbc571a	-0.005747688
196	0xbb1e57cb	-0.0024161215
197	0xbba99280	-0.005174935
198	0x3cb1fa3d	0.021725768
199	0xbc83a7ab	-0.016071161
200	0xbc8c021a	-0.017090846
201	0x3bac8088	0.0052643456
202	0xbc1ef453	-0.009701806
203	0xbc4b25a7	-0.012399114
204	0x3b86abe1	0.004109845
205	0x3c0ec9d2	0.00871511
206	0xbb4edc5a	-0.0031564445
207	0x3c7c5362	0.015400739
208	0x3c23c3b6	0.009995392
209	0x3c02d71b	0.007985855
210	0x3c7003e2	0.014649363
211	0xbb805250	-0.0039160624
212	0x3c71ea93	0.0147653995
213	0xbbe5eddd	-0.007016881
214	0x3bf0f210	0.007353075
215	0xbb2971fb	-0.0025855291
216	0x3b765887	0.0037589388
217	0x3ae4a9b3	0.0017445594
218	0x3b3365db	0.0027373943
219	0xba8cf3a4	-0.0010753763
220	0x3bc45a86	0.0059922365
221	0x3c85e108	0.016342655
222	0x3b6cbd45	0.0036123556
223	0xbca36f33	-0.019950485
224	0xbc63f52b	-0.013913433
225	0xbca02207	-0.019547476
226	0xbc3a243f	-0.011361181
227	0x3c0ee7d4	0.008722264
228	0xbbdc8e42	-0.0067308256
229	0x3aae2b0c	0.0013287975
230	0x3be7ad3b	0.007070211
231	0xbc314656	-0.010819992
232	0xba679970	-0.00088348147
233	0x3cadd903	0.021221643
234	0x3c33608a	0.01094831
235	0x3c4a8755	0.012361367
236	0xbc440504	-0.011964086
237	0x3baea831	0.0053301086
238	0x3c042586	0.008065587
239	0x3c23c8f8	0.009996645
240	0xbac8cb89	-0.0015319447
241	0xbc16bead	-0.009200734
242	0x3bf4aa70	0.007466607
243	0xbaad98be	-0.0013244373
244	0x3c2b5ddf	0.010459392
245	0x3bde72f0	0.006788604
246	0xbb9181ff	-0.0044405456
247	0x3bbb7b80	0.0057215095
248	0xbb3aa914	-0.0028482126
249	0xbc188af5	-0.009310474
250	0xbbcc15b2	-0.006228172
251	0xbcc8d9ea	-0.024517972
252	0xbc57206f	-0.013130291
253	0xbaf3625b	-0.0018568741
254	0x3af6eed3	0.0018839486
255	0x3acb03b3	0.0015488773

action_model._discrete_distribution.branches.2.weight f4 [3, 128]
0	0x3b98a205	0.004657986
1	0xbab41433	-0.001373893
2	0x37f853d7	2.9602945e-05
3	0x3ad6c712	0.0016386232
4	0xbc23ff41	-0.010009588
5	0xbc38e56f	-0.01128517
6	0x3b9802ec	0.00463902
7	0x3beb88fd	0.007187961
8	0xbb9223ce	-0.0044598347
9	0xbb330a94	-0.0027319537
10	0xbca5d056	-0.020240944
11	0xbafb56ff	-0.0019175707
12	0xbc57e29f	-0.013176589
13	0x3a054f2f	0.00050853466
14	0x3c0a98df	0.008459299
15	0x3b977bd8	0.0046229176
16	0xbb033f14	-0.0020026611
17	0x3c116eb3	0.00887649
18	0x3b90bbfc	0.0044169407
19	0x3bdaf303	0.0066818013
20	0x3c05bf4a	0.008163283
21	0xbc380d5d	-0.011233655
22	0xbbf7de1a	-0.0075643184
23	0x3b847903	0.004042746
24	0x3b62d99a	0.0034614564
25	0xbc01b302	-0.007916214
26	0xbbf4216d	-0.0074502737
27	0x3c7d8eef	0.015475973
28	0x39c2c99d	0.00037152777
29	0x3bfdf9a8	0.0077507086
30	0xbb8823f8	-0.0041546784
31	0x3b984e3f	0.0046479995
32	0x3bc7b9de	0.006095155
33	0x3ba3ddcf	0.005000807
34	0x3c645ed0	0.013938621
35	0x3c273007	0.010204322
36	0xbb8490a5	-0.0040455633
37	0x3ab201fd	0.0013580915
38	0xbb8b8158	-0.0042573623
39	0xbbfd2b47	-0.0077261063
40	0xbc5f2ce7	-0.013621545
41	0xbb750beb	-0.0037391137
42	0xbc3bb8ca	-0.011457631
43	0xbb12c571	-0.0022395516
44	0xbbae5aa7	-0.005320865
45	0xbc9def08	-0.019279018
46	0xbc5deb02	-0.0135448
47	0xbbd05152	-0.0063573504
48	0x3c1be24b	0.009514402
49	0x3c49d922	0.012319835
50	0x3b01c571	0.0019801522
51	0xbba18532	-0.004929208
52	0xbb4b00aa	-0.0030975738
53	0xbc50fff5	-0.012756337
54	0x3b19e573	0.002348271
55	0x38731b18	5.7960948e-05
56	0x3b66ba3b	0.0035206217
57	0x3c168cf4	0.009188879
58	0xbcb05a10	-0.02152732
59	0x3c3b55fd	0.011434075
60	0x3c1ab5ae	0.00944273
61	0x3be23770	0.0069035813
62	0x3c86b587	0.01644398
63	0xbb4697a9	-0.00303028
64	0x3bb0fae5	0.0054010027
65	0x3bf35407	0.0074257883
66	0x3b4c5926	0.0031181066
67	0xbc15e32b	-0.009148399
68	0xbc66c945	-0.014086072
69	0x3b981602	0.0046412954
70	0x39fe89e0	0.0004854938
71	0x3c55dd60	0.013053268
72	0xbc0196d3	-0.007909494
73	0x39f22950	0.00046188617
74	0xbc36d5f3	-0.011159408
75	0x3b839778	0.004015859
76	0x3c8461b3	0.016159868
77	0x3c8204ec	0.015871488
78	0x3cafdce9	0.021467643
79	0x3bead1c5	0.0071661198
80	0xbc0ebca2	-0.008711966
81	0xbbe46f83	-0.006971301
82	0x3c13921e	0.009007005
83	0xbc5080eb	-0.012726049
84	0x3cb62432	0.022234056
85	0x3c0943e5	0.008378004
86	0x3c5838d7	0.013197145
87	0xbbd29040	-0.0064258873
88	0xbb5f15db	-0.0034040126
89	0x3c0dd840	0.008657515
90	0xbb9e6f08	-0.0048350133
91	0x3bcade16	0.0061910255
92	0x3c35b02b	0.011089365
93	0xbbe2554b	-0.0069071404
94	0xbca862d7	-0.020554943
95	0xbbda6b3b	-0.006665615
96	0xbbf1a385	-0.0073742294
97	0xbc4a5f84	-0.012351874
98	0xbbedfb68	-0.007262636
99	0xbc0f7c8b	-0.008757721
100	0xbad54ffa	-0.0016274445
101	0x3c289ae0	0.010290831
102	0xbbc17018	-0.005903255
103	0xbc3738c7	-0.01118297
104	0x3c871b61	0.016492547
105	0xbabeb60b	-0.0014550103
106	0xbc634347	-0.013871021
107	0xbb6bc563	-0.0035975806
108	0x3c5566b3	0.013024974
109	0xbc6500c3	-0.013977232
110	0x3bc58eec	0.0060290005
111	0x3bcad3dd	0.006189807
112	0xbb29a29c	-0.0025884276
113	0xbb9a2e23	-0.004705207
114	0x3acbcc11	0.0015548487
115	0xbb8283e0	-0.003983006
116	0xbba4eca7	-0.005033094
117	0x3c673920	0.014112741
118	0x3bf65dfd	0.0075185285
119	0x39c51aa8	0.00037594629
120	0x3a683215	0.00088575605
121	0x3bb7f125	0.0056134635
122	0x3bacb145	0.0052701556
123	0x3be2ead3	0.006924966
124	0x3b07770f	0.002067033
125	0x3c556b20	0.013026029
126	0x3b979fe5	0.004627215
127	0xba4e55b5	-0.0007871048
128	0x3c21a34a	0.009865591
129	0xbc35cc8c	-0.011096131
130	0x3c1c453b	0.00953799
131	0x3971d387	0.00023062351
132	0x3c06972d	0.008214754
133	0x3ba13a8b	0.004920309
134	0x3c83003b	0.01599132
135	0x3cacceca	0.021094698
136	0xbb5354ef	-0.003224667
137	0x3a9302c7	0.0011216038
138	0xbc5e57e7	-0.013570762
139	0x3c229be0	0.009924859
140	0xbbf53708	-0.007483367
141	0x3b7635d7	0.0037568712
142	0xb9688170	-0.00022173463
143	0x3bda977f	0.006670892
144	0x3ba64b73	0.005074912
145	0x3c3110f6	0.010807266
146	0xbc37cc60	-0.01121816
147	0xbc100293	-0.008789676
148	0xbb2a3e62	-0.0025977124
149	0xbc0aef51	-0.008479909
150	0x3a5ad9ed	0.00083485135
151	0xbc6b699f	-0.014368444
152	0xbac8e90c	-0.0015328242
153	0xb9ca2cab	-0.00038561723
154	0x3bd01683	0.00635034
155	0xbbb552c3	-0.0055335476
156	0x3b054f7e	0.002034157
157	0x39cb4bc5	0.0003877563
158	0x3c7aa1dd	0.01529738
159	0x3c589562	0.013219209
160	0xbace6658	-0.0015747054
161	0x3bbce333	0.005764389
162	0xbc4815c4	-0.012212221
163	0xba7df480	-0.00096876174
164	0x3c862443	0.016374713
165	0x3c34cdc7	0.011035389
166	0xbbfca11a	-0.0077096345
167	0x39cd1183	0.00039113694
168	0x3be5a245	0.0070078694
169	0xba1a137e	-0.00058775384
170	0x3aae898f	0.0013316142
171	0x3c3078ce	0.01077099
172	0xbaf3e478	-0.0018607518
173	0xbb08d25f	-0.0020877344
174	0xbbbad50f	-0.005701668
175	0xbc824222	-0.015900675
176	0x3abda963	0.0014470037
177	0x3a6d8f78	0.0009062211
178	0x3a919023	0.0011105578
179	0x3c493abf	0.012282073
180	0xbb977c43	-0.0046229674
181	0xbc20cc17	-0.009814284
182	0xbcc9497d	-0.024571175
183	0x3b0c646b	0.0021422158
184	0x3c52359d	0.012830165
185	0xbca33e1f	-0.019927083
186	0xbc8f9b49	-0.0175301
187	0x39a8f3cb	0.00032225097
188	0x3c1abe33	0.009444761
189	0x3b58ad70	0.0033062361
190	0x3b909b98	0.0044130795
191	0x3a0bd4d2	0.0005334142
192	0x3c825ce3	0.015913432
193	0x3aed5367	0.0018106521
194	0x3c67bb6f	0.014143809
195	0xbc0c999c	-0.008581545
196	0x3be5a2ff	0.007007956
197	0xbc1ed578	-0.00969445
198	0xbb98f2f1	-0.0046676327
199	0xbbb42847	-0.0054979655
200	0x3bdeb3d0	0.0067963377
201	0x3b58c89a	0.0033078552
202	0xbc3345e7	-0.010941959
203	0xb9c74ed4	-0.0003801497
204	0x3c021ae4	0.007940982
205	0xba0ff8eb	-0.0005492109
206	0x3a78bf73	0.00094889774
207	0xbc5088a5	-0.012727891
208	0xbc168a7b	-0.00918829
209	0x3c92c2ff	0.017915247
210	0xbc5abb47	-0.013350314
211	0xbc3b1db3	-0.011420655
212	0x3b31579f	0.0027060283
213	0x3c0f47dd	0.008745161
214	0xba94d263	-0.0011354204
215	0xbc89353f	-0.016749023
216	0xbc1d3b68	-0.009596683
217	0xbb4c9a8f	-0.0031220054
218	0x3be19485	0.00688416
219	0x3b0694a2	0.002053537
220	0x3ba06f8f	0.0048961113
221	0xbc9a2d07	-0.018820299
222	0x3a9066ba	0.0011016943
223	0x3c08c46b	0.008347611
224	0xb9f78313	-0.0004720917
225	0xbc138e88	-0.00900615
226	0xbc410bb3	-0.0117825745
227	0xbbd249a2	-0.006417469
228	0x39b99de2	0.00035403582
229	0x3c2b1075	0.010440935
230	0x3aaf6fa2	0.001338471
231	0x3c09fd25	0.008422171
232	0xbc6db4e7	-0.0145084625
233	0xbc02a73e	-0.007974444
234	0xbb8576d4	-0.0040730033
235	0xbb63023b	-0.003463878
236	0xbbee3afa	-0.007270214
237	0x3c044d5c	0.008075085
238	0xbc291cce	-0.010321809
239	0x3a54f0d7	0.0008123046
240	0xbc007120	-0.007839471
241	0xbbcdc70f	-0.006279833
242	0x3b4e49e8	0.0031477157
243	0x3b52bec8	0.0032157172
244	0x3c2236aa	0.009900728
245	0x3b90b26d	0.0044158013
246	0xba07b64b	-0.0005177005
247	0x3c1352e3	0.00899193
248	0x383a2ee7	4.4389537e-05
249	0xbc2d5185	-0.010578518
250	0xbc0a2b6b	-0.008433203
251	0xbb132c75	-0.0022456918
252	0x3c24c762	0.010057302
253	0x3c8b2a73	0.016988015
254	0x3c5d57df	0.01350972
255	0x3c7c2a53	0.01539095
